…
     "start_time": "2026-05-12T14:54:51.099099",
     "status": "completed"
    },
    "tags": []
   },
   "outputs": [
    {
     "name": "stdout",
     "output_type": "stream",
     "text": [
      "Model: \"model_3\"\n",
      "_________________________________________________________________\n",
      "Layer (type)                 Output Shape              Param #   \n",
      "=================================================================\n",
      "input_8 (InputLayer)         [(None, 224, 224, 3)]     0         \n",
      "_________________________________________________________________\n",
      "vgg19 (Functional)           (None, 7, 7, 512)         20024384  \n",
      "_________________________________________________________________\n",
      "global_average_pooling2d (Gl (None, 512)               0         \n",
      "_________________________________________________________________\n",
      "batch_normalization (BatchNo (None, 512)               2048      \n",
      "_________________________________________________________________\n",
      "dense_3 (Dense)              (None, 256)               131328    \n",
      "_________________________________________________________________\n",
      "dropout (Dropout)            (None, 256)               0         \n",
      "_________________________________________________________________\n",
      "fuzzy_layer (FuzzyLayer)     (None, 128)               65536     \n",
      "_________________________________________________________________\n",
      "dense_4 (Dense)              (None, 64)                8256      \n",
      "_________________________________________________________________\n",
      "dropout_1 (Dropout)          (None, 64)                0         \n",
      "_________________________________________________________________\n",
      "dense_5 (Dense)              (None, 4)                 260       \n",
      "=================================================================\n",
      "Total params: 20,231,812\n",
      "Trainable params: 20,228,996\n",
      "Non-trainable params: 2,816\n",
      "_________________________________________________________________\n",
      "Epoch 1/50\n",
      "321/321 [==============================] - 78s 233ms/step - loss: 1.5520 - auc: 0.5099 - accuracy: 0.2623 - val_loss: 1.3831 - val_auc: 0.5828 - val_accuracy: 0.5004\n",
…
